best_model.pt (torch, 209323 bytes, 9 tensors)

lstm.weight_ih_l0 f4 [256, 5]
00000000: 0364 ef3d 2a74 f33d 7537 f7bb 0f9c 083e
00000010: 4def 6b3e a54d 7c3d f78f a4bc 2926 e13d
00000020: 8da7 273e 966b d03e 9658 bd3d 27fa 7b39
00000030: c96b ac3d ca0b f93b 802f d03c 5802 203d
00000040: 796d 213e 7152 903d dc56 81b9 b9b9 703f
00000050: acab 18be 7442 e7bd 0dd5 0cbe 0518 2abc
00000060: cdc7 b8be b915 b53d c2a5 eb3d 260b 893d
00000070: 6541 243e 7186 413f 7f07 993e e186 a33d
00000080: ff1b 933e 0d44 573e 80fc 633c 9629 3a3e
00000090: 8bcc 043e 049e 4c3e 1623 f33d 5df8 463f
000000a0: b402 c33d 91bd e93c eda9 e23d 4dc0 2f3e
000000b0: 4364 113f cfb0 6fbc 445e d83d cd01 953d
000000c0: a22c e33d 60e1 69be cc4d 8dbd 23cb dd3a
000000d0: d339 07bd f984 253e c9aa f9bd a6d2 973d
000000e0: 75d3 743d cc86 e83c ccd3 003e 25e9 5fbe
000000f0: e02e 9cbb 7194 d8bd 840d fd3c 5699 52bd
00000100: 7e19 69bc e853 0d3e b466 8c3e 4765 ad3d
00000110: cbd3 ba3d d823 363f e6ca bf3d 6822 ec3c
00000120: 62ce cc3d ceb4 e5bd ffff e63e 9e13 9bbd
00000130: 8bcc 7ebd c773 8b3d bfa2 843d 8c92 633f
00000140: 309f 73bd 71da b2bd b0c3 ad3d ade4 c0bc
00000150: a5b1 c0bd d8e6 a8bc 6ce9 9f3d 5303 aebd
00000160: 6330 50bd 7616 063e 4cec e03d 2afd 353d
00000170: 429e 273e c952 2f3e 8cf1 493c 72c6 5dbd
00000180: 2bbb 053e c94a 06bd f0c2 d3bc de5f 0c3f
00000190: c854 503d 6825 113e 4ec2 e93d 1183 f93c
000001a0: 5ef6 b4bd 5208 473c 8c0a e6bb ed70 d73c
000001b0: 25eb 35bc 7dda 2e3f cda0 3a3e 0e86 9e3d
000001c0: e942 c23d bfc2 71bd 32d5 ea3e 73ec 003e
000001d0: fb0d 403e 2aff 7f3d 94f4 ee3d b1f9 03be
000001e0: 9839 b8bc b42b 88bd a177 14bd d808 dabd
000001f0: a9e9 413f f7a7 c5bd 71ff 83bd e539 06be
00000200: 04e4 9b3d 92c7 cb3e 6236 e83d 2b81 443d
00000210: 5de7 d6bd 3346 be3d 9ada 433f 7aed a4bc
00000220: 3703 a0bd c289 c6bd 4617 823d 98c2 183f
00000230: ddb9 993d 39ab a2bd 06ac ee3d 7e40 8ebd
00000240: 29fb 503f c7af 963d f918 e53d 9582 133e
00000250: 47c2 223e 1d03 263f 0941 cf3c d5dd 5fbd
00000260: 09c1 c1bc 6a9d bdbd 4e44 4c3f 7f21 10bd
00000270: 5933 f83d e9a1 d03d 38f9 c93d 6354 483e
00000280: 6385 793d 4dec b8bc c42a 0bbd 387f 18be
00000290: c29c 2e3e a6b0 56bd 04de bebd d9a3 873d
000002a0: 16a2 50bc c5d8 733f 2f86 a7bd 5bb8 cbbc
000002b0: 4e16 5c3d 6534 32bd 3da5 c03e bf16 62bd
000002c0: c50c d3bd 276c fb3c 9937 b73d a942 2b3f
000002d0: 1963 033e 1ae2 2e3e cfeb ed3d 5dc4 6d3d
000002e0: 3264 823f 80eb b43d 7548 893d 8cf5 753b
000002f0: a613 02bc 2dbe e23c 951b c83b 38fd 9bbb
00000300: 72f6 cf3d dffe 0a3e dc74 5b3f bc70 283d
00000310: 7c02 8a3d 0330 863d 6957 d03d 4eae 313e
00000320: 28ac ebbd 7745 41bd 9ea3 d33d 33f1 433d
00000330: 79ba 3c3e 3c69 e03d ff6b cc3d e0b4 9c3d
00000340: f25f 0f3e 7f89 893e 4414 5a3e b092 463e
00000350: 79f9 903c 7724 693d 83d4 5d3f c7fc 043e
00000360: d0c0 af3c 047c 51bc 2e18 903d 9d0a 58be
00000370: 2124 c9bd 056f 993d c948 a3bd e06e 37bd
00000380: 6c20 ff3e 7d5d 4f3c 89f9 813c 1ea4 aabc
00000390: 92e4 23be b919 68be be6b 9ebd a5c3 f53d
000003a0: 77dd 9f3d 840b 033e 7917 733f ff8a 193d
000003b0: de39 08bb 29f3 abbd cb25 c4bd 6fe7 91be
000003c0: 6080 4c3e acdd a83d ed0e 093e 5fb3 a83d
000003d0: be87 0abe 4191 06be 5bfe 04be 2eb2 9a3b
000003e0: cd2f 91bd b0de 493a 176c 863b 369c 51bd
000003f0: 2d07 c23c 21e8 7dbc e435 5e3e ba2c babd
0.116889976 0.11887391 -0.007544453 0.13340782 0.23040505 0.061597485 -0.020088179 0.109936066
0.1637251 0.40707082 0.09245412 0.00024030414 0.08418996 0.0076002823 0.025413275 0.039064735
0.15764417 0.070469745 -0.00024669513 0.9403339 -0.14909238 -0.11291972 -0.13753147 -0.010381703
-0.36089936 0.08842034 0.11506225 0.066915795 0.16040571 0.75595766 0.29888532 0.079847105
0.28732297 0.21022053 0.013915181 0.18179926 0.12968652 0.19982153 0.118719265 0.7772272
0.09522 0.028532775 0.11067567 0.171632 0.5679361 -0.014629557 0.10564855 0.07275734
0.110924974 -0.2283988 -0.06899604 0.0016921501 -0.03301413 0.16164006 -0.12190778 0.07413225
0.059771974 0.028384589 0.12580794 -0.21866281 -0.00476633 -0.10575188 0.030890234 -0.051415764
-0.014227269 0.13801539 0.27422106 0.08466583 0.091224276 0.71148443 0.09364872 0.028825
0.10000302 -0.112161264 0.45117185 -0.07572101 -0.062206786 0.06809192 0.06476354 0.8889549
-0.059477985 -0.08733071 0.0848459 -0.023546541 -0.09408883 -0.020617887 0.078081936 -0.08496728
-0.050827395 0.13094506 0.1098257 0.04443089 0.16368964 0.17121424 0.012325656 -0.05414433
0.1305968 -0.032786164 -0.02584979 0.5483378 0.050862104 0.14174426 0.11414014 0.030458005
-0.08836053 0.01214798 -0.0070203003 0.026298964 -0.011103426 0.68302137 0.18225403 0.07740413
0.09485418 -0.059023615 0.4586578 0.12590198 0.18755333 0.062499203 0.11667743 -0.12888218
-0.0224884 -0.06648961 -0.0362469 -0.10646218 0.7574716 -0.096511774 -0.06445206 -0.13108023
0.0761185 0.39800698 0.11338498 0.047974747 -0.10493348 0.09290733 0.76505435 -0.020132769
-0.07813113 -0.09694244 0.06352095 0.59671926 0.07506154 -0.079428144 0.116539046 -0.06945895
0.8163324 0.073577456 0.11186404 0.14405282 0.15894423 0.648485 0.025299566 -0.054654915
-0.023651617 -0.0925854 0.79791725 -0.035188194 0.12119169 0.10187132 0.09861988 0.19563441
0.060918223 -0.022573614 -0.03397633 -0.1489228 0.17051986 -0.05241456 -0.0931969 0.06623048
-0.012733957 0.9525264 -0.0817989 -0.024868181 0.05373221 -0.043507 0.37626067 -0.055197474
-0.1030517 0.03069122 0.08946151 0.6689859 0.12830772 0.17078438 0.116172425 0.058048595
1.0186827 0.088339806 0.06703273 0.003753039 -0.007939255 0.027678574 0.0061068037 -0.0047604106
0.101544276 0.13573788 0.8572519 0.041123137 0.06738755 0.06552126 0.10172922 0.17351648
-0.115074456 -0.047185387 0.10333942 0.047837447 0.18430509 0.10957572 0.09981536 0.07651687
0.14001444 0.26862714 0.21296793 0.19391894 0.017697083 0.05691954 0.8665239 0.12987052
0.021454245 -0.012785915 0.07035862 -0.21097799 -0.09821344 0.074918784 -0.07972867 -0.044783473
0.49829423 0.012656567 0.015866058 -0.02083021 -0.16005161 -0.22666062 -0.07735394 0.12000207
0.07805913 0.12797362 0.9495769 0.037486073 -0.0020786445 -0.083959885 -0.09577521 -0.28496882
0.19970846 0.082454056 0.133846 0.08237337 -0.13528344 -0.13141347 -0.12987654 0.0047209477
-0.070891954 0.00077007245 0.004102241 -0.051174365 0.023685062 -0.015497238 0.21700245 -0.09090562

lstm.weight_hh_l0 f4 [256, 64]
00000000: c903 3dbe 46bb e5bb 3192 f0bc e67a c3bc
00000010: ac93 0ebe 78f8 0a3e 6350 20bd c8b1 a6bd
00000020: 44fc df3d d3a2 063e 93ca 233d e4df ab3d
00000030: 54a4 143e 9f55 b2bd 181c 523e 624e 863e
00000040: 609f 21be 944f 1cbe 6edd 863d 2405 4c3d
00000050: b579 19be e3e5 5a3e a204 b5bc 321f e53d
00000060: 38a2 a7bd 0bc1 9abd cfeb fcb9 4a2e 88be
00000070: 1888 453e 06bc d4bd b611 ba3d d7d7 c73d
00000080: cb9a b03d 4d63 84bd 5c45 523e be9c a53d
00000090: 64b3 5dbc 72a9 25bc 2b3a 3fbe 8d81 45bc
000000a0: f76b 27be 7239 a63d 53ef cc3d 32e1 0e3d
000000b0: 5435 383e 31a7 a0bd cfb2 e03c 01ba 9d3d
000000c0: 08ed 6dbe dafb 0d3e c3ad 47be 75d0 22bd
000000d0: 003f c73d 3508 2ebe 759b a3bd 2ffe b6bc
000000e0: 0dde 213d e3a9 d4bc 221e 883d 359f 4c3d
000000f0: d222 8bbb 703f 5bbd 503c ad3d 48cd e03c
00000100: 3fbf 0d3d 0d8c e9bd f0fa a93d c0f7 ac3b
00000110: d3fc 42be 1714 a5bd 18cd 82bd a623 7f3d
00000120: 1baa 343e 8dee adbc daab e63d e4a0 803d
00000130: ee66 e3bd 2a04 893c 022c ef3d ba36 b93d
00000140: f061 28bc 52ab 9abd 4ff0 0ebe edd9 633e
00000150: 0fdf 583d c8ae a6bd b167 1fbd b630 1ebe
00000160: 0589 db3d d370 e0bd 6fbf e8bd d394 41bc
00000170: 33e2 9a3d c3f8 42be c802 133e 96a1 03bd
00000180: 83a4 103d 921e fa3c 266c 5e3e 8b10 3b3e
00000190: e3ce 493d 7086 02bd 225b 2b3e eeba 12bd
000001a0: 0ce8 7bbd ca31 5abd d60f 54be 275f 033e
000001b0: 8f15 633d fafd 37bd 49ef 963d a9d3 7f3d
000001c0: df46 b53c 3a8e 203d 99a5 8abd 80f3 953d
000001d0: 1fbb bd3c cc64 22be 6e04 943d ead1 1bbd
000001e0: 854d ffbd 5e95 f2bc f486 0ebe 8384 41bd
000001f0: 485a eebd 32c4 d1bd 5be4 79bd 9c21 2bbe
00000200: 5b8a 3ebe 2d0b dd3d 4751 dcbd 7b0b 063e
00000210: a01b 8d3e 255f 263e cae4 87be d43f 47bc
00000220: 9b67 b9bd eed5 0e3e 6a46 bcbd 3aed 22be
00000230: 2d9f 353d 8ae9 f0bc 9a9b ffbd 254c 343d
00000240: 8bf6 c4bd eaa0 7d3c faad 3e3d 2628 6b3c
00000250: 0972 83bd 1706 19be 9b95 0c3e 0a22 4b3e
00000260: ad24 203e 2f68 683e 5f8a 24be 5cdf 23be
00000270: 1982 fa3d 9943 95bd 5ff0 7ebd 03e9 2a3d
00000280: 504f 2dbc 94be 0dbd 5506 14bc 22c8 9c3d
00000290: afdb 183d 258f 31be 50ba a83d 18d5 6ebd
000002a0: ddae 323d 5859 c6bc 2680 0e3e 3ca4 38be
000002b0: d094 5c3e 6f07 6c3d 9640 25bc 19c2 85bd
000002c0: a0a1 96bd 7759 293e 308d 71be 05a5 363d
000002d0: 2307 16be f913 523d 2d15 bcbc dace 56bd
000002e0: 2e7e 923d 10d6 b8bd 24e3 7f3e de09 cfbc
000002f0: 8526 553e 9089 6a3e 09f5 9cba 7bd3 f3bc
00000300: a387 b3bc 09ff 4e3a 9c88 453d d350 09bd
00000310: a8d7 c9bd ba49 383e 29f8 99be 8962 febc
00000320: 5c9a 353e cbc1 9c3d f7e3 3ebe 8b62 40be
00000330: c2e8 ac3c e79d 19be 6059 3f3e f199 7e3e
00000340: 2b88 1c3d e3b4 c53d 8320 bf3c 0906 603d
00000350: 9d0e 19be ce6b 82bd 2162 87be bc00 723d
00000360: c6b4 63be c591 08bd 3dd8 f6bd 5267 d03b
00000370: 3686 643e 53ca 1ebe aad0 543e 103c 953c
00000380: 1990 45bd f283 22be 7985 413e 09d1 603e
00000390: d1d5 173c 9917 3ebb cf4c b3bd 9e72 333b
000003a0: 78ed 11be ded2 5a3e dcff f43c 6847 403e
000003b0: 7f65 ae3e e1e9 cd3d 8853 41bd cdf2 43be
000003c0: 8da7 0dbe 065a 9e3d e815 13bb 8cd6 053e
000003d0: d7f4 a73c 8d5c bdbe 1de9 4a3e c741 013c
000003e0: dda0 013c 1c80 8bbd 060b 01be b6ec 343e
000003f0: 00ab 09bd 30aa b7bd b478 2bbc 577d 82be
-0.18458475 -0.00701085 -0.029366584 -0.023862313 -0.1392352 0.13571346 -0.039139163 -0.08139378
0.10936788 0.1314805 0.03998811 0.08392313 0.14515811 -0.08707737 0.2051853 0.26231676
-0.15783453 -0.15264732 0.06585203 0.04980959 -0.14987834 0.21376757 -0.022096936 0.11187591
-0.08185238 -0.07556351 -0.00048240877 -0.26597816 0.19290197 -0.10387425 0.09085409 0.09757965
0.086232744 -0.064642526 0.20534271 0.08086537 -0.01353154 -0.0101112 -0.18674533 -0.012054813
-0.16349779 0.081164256 0.10006585 0.03488273 0.17989093 -0.07844389 0.027429013 0.07701493
-0.23234951 0.13865605 -0.19499879 -0.03974958 0.09728813 -0.16995318 -0.079886355 -0.022338001
0.039518405 -0.025959915 0.066463724 0.04995652 -0.0042460943 -0.053527296 0.08458769 0.027441636
0.034606215 -0.11403666 0.08299816 0.0052785575 -0.19041757 -0.080604725 -0.06386775 0.062289856
0.17643015 -0.021231914 0.11263247 0.062806875 -0.11103617 0.016725618 0.11678316 0.090436414
-0.010277256 -0.07552208 -0.13958858 0.22251101 0.0529471 -0.08138806 -0.038917247 -0.15448269
0.10719494 -0.109590195 -0.11364638 -0.011815268 0.07562675 -0.19040208 0.1435653 -0.032136522
0.03531314 0.030532155 0.21720943 0.1826803 0.04926957 -0.03186649 0.16733983 -0.0358228
-0.061500594 -0.05327014 -0.20709166 0.12829266 0.05544048 -0.044919945 0.07369859 0.062457714
0.02212852 0.039198138 -0.067698665 0.073218346 0.023160515 -0.15858763 0.072274074 -0.038041987
-0.124659576 -0.02961224 -0.13918668 -0.047245514 -0.116383135 -0.102424994 -0.061008792 -0.1671204
-0.18607466 0.10793147 -0.1075769 0.13090317 0.2756014 0.16247232 -0.2654174 -0.012161214
-0.09052964 0.13948795 -0.09193118 -0.15910807 0.044341255 -0.029408235 -0.124808505 0.04401793
-0.09617337 0.015480259 0.046552636 0.014352834 -0.06418235 -0.1494373 0.13728945 0.19837204
0.1563899 0.22695993 -0.1606841 -0.16003174 0.122318454 -0.07288284 -0.062240954 0.041726124
-0.010577992 -0.034605578 -0.009034713 0.0765536 0.03731888 -0.17339762 0.08238661 -0.05830869
0.043623794 -0.024212524 0.13916072 -0.180314 0.21541142 0.057624277 -0.010086199 -0.06531162
-0.07355046 0.16538034 -0.23589015 0.04459097 -0.1465116 0.05128858 -0.022959316 -0.052443363
0.07152973 -0.09025204 0.24988991 -0.02527326 0.20815475 0.22904038 -0.0011974882 -0.029763928
-0.021915263 0.00078962796 0.048225984 -0.033524346 -0.09855586 0.17996874 -0.30072144 -0.031052845
0.17734665 0.076541506 -0.18641649 -0.18787591 0.021107081 -0.15001641 0.18686438 0.24863411
0.038215797 0.09653642 0.023330932 0.054693256 -0.14946981 -0.06368218 -0.26442054 0.05908273
-0.22236928 -0.03334214 -0.12052963 0.006359973 0.22316822 -0.15506868 0.20782724 0.018217117
-0.048233125 -0.15870646 0.18898572 0.2195474 0.009267286 -0.0029005765 -0.087548845 0.002738155
-0.14250743 0.21369502 0.02990716 0.1877724 0.3406181 0.100543745 -0.047198802 -0.1913559
-0.13833447 0.07732014 -0.0022443477 0.13070124 0.02050249 -0.36984673 0.19815488 0.007889218
0.007911888 -0.06811544 -0.12601861 0.17668423 -0.033610344 -0.089680076 -0.01046579 -0.25486252

lstm.bias_ih_l0 f4 [256]
00000000: 588a a0be 5605 0dbf 5972 953d 5097 55bf
00000010: ae3e 753e 93bf 53bf 0665 06bc 7b5f 67bf
00000020: 1573 ccbe f01c 283e f3d8 d83d 60c9 d83c
00000030: 130b 963c d780 40bf 8cfd fbbe 9f6a 5cbf
00000040: 8369 1d3e 4762 e9bd bbc2 24be 5cf2 2abf
00000050: 8c64 d53d df9c 57bf c20b 1fbf 9bce a4bc
00000060: ae36 38bf fd1a c5be d8f6 40bf da3b 27bf
00000070: 52a5 45bf 14e7 55bf c5ef 30bf ea76 cfbe
00000080: 42d7 09be 413d 93bf 778a ecbe 65f3 32bf
00000090: cd8c 63bf 9472 d2bc 56d6 5dbf 3a5e 84be
000000a0: 54a5 51be a459 3fbe e735 58bf e151 ee3d
000000b0: 1659 22bf be62 0b3e 2421 49bf cbdc 173e
000000c0: 05a9 ee3d fcb0 313d c840 96be c40a 67bf
000000d0: c4d2 503c 7c19 01bf 3e6b 00be 41c6 1abf
000000e0: cc9c 24bd cc2d 4ebf d5c1 0abf 058f 173e
000000f0: e1da 57bf 5c74 ac3d a828 83bf cee4 4abe
00000100: 307e e9be 45c7 02bf a855 edbd 2977 41bf
00000110: 45ed 2fbe 06fd 1ebf 8a3a fabd 02d3 08bf
00000120: 0cbd 0ebf 3c88 83be 1087 03be 2032 87be
00000130: f5e4 33be fa2b 29bf 50ca f9be b1f9 1ebf
00000140: 9bf0 82bd c5cb bebe 428f b3be dab8 0cbf
00000150: 2cdc d0bd bae8 1ebf a188 f4be b6d4 4ebe
00000160: cd0d 48bf 51c6 ecbe f3cd 26bf 016d 1ebf
00000170: 28da 1bbf eda2 16bf 1216 01bf b23a f5be
00000180: c489 29be 59a1 20bf e40e f4be fefb 37bf
00000190: 35b0 28bf 2f75 bebe e7eb 08bf c8cc 56be
000001a0: 01b4 b9be 6a83 ccbe 01c0 1dbf 1d8a 27bc
000001b0: 4e6e 0dbf 1780 2dbe d4d0 21bf 4e02 93bd
000001c0: 4ecc 13be a901 90be dde7 b7be 9a50 48bf
000001d0: f6ca 863d e211 12bf 6dd2 f7bd 5f4b e7be
000001e0: 815b a0be 0b6b 14bf eec1 0ebf 010d 38be
000001f0: 20ee 19bf f58e 83be 7d8a 2fbf 50d3 94be
00000200: ad05 91bd fc9a cdba 8db7 62bd 2b90 f5bd
00000210: 5872 9ebd 8cac 48bc 732a 483d 0014 73bd
00000220: 3fca a4bb 4012 e8bc ea5a 8d3c 92e8 973d
00000230: 50c1 4b3d 1644 b33c 5b68 8abd 73a7 f5bd
00000240: f708 203e cd5f 1abd 1b08 e03c a033 71bd
00000250: 2147 dfbd da20 b13d dc1b d73d 1089 673c
00000260: 1f1f ecbc 109a 473d 6766 30bc fbe4 14bd
00000270: 8e99 89bd 963c 2c3c 964b bc3d aead 76bc
00000280: dee1 05be b577 54bd 5e92 30bd 73c2 dd3d
00000290: 4a11 9bbd 7f0b 1339 8ce1 09bd d2da 963a
000002a0: 1101 35bd 3261 c13d a92f fcbd 52cc e23d
000002b0: b0f4 a6bc 8474 02be 624c 0dbd d147 bbbd
000002c0: 4ccf 933d 4044 f43b 4601 b73d 9060 3f3d
000002d0: 22de e3bd 72ef 02be 0f66 263e cf43 123d
000002e0: 8619 d13c 2365 243b 20e6 d3bd 46d8 d1bc
000002f0: df12 1d3d 7188 83bd ea31 84bd 035e 543d
00000300: 7a29 89be d211 ffbe 2e7d 013d 1f27 4ebf
00000310: a776 8a3e 5a69 41bf 7a3e 1bbe 5bdf 66bf
00000320: e5f5 c7be 9a07 993d 3b05 363e 2148 ff3d
00000330: 566b f9bd ae65 31bf b2fe f2be fea7 56bf
00000340: 4de2 323e b7f0 81be 636b c4bd c135 0dbf
00000350: a007 373c fff6 13bf 4492 24bf 2347 c03c
00000360: 9c1e 5ebf 0610 53be eae6 29bf 4a04 2ebf
00000370: 83bb 73bf 6152 3dbf 1c1b 0cbf 9c73 9bbe
00000380: 7382 34be 7c67 8fbf c855 0bbf 95df 59bf
00000390: ff5e 81bf ce73 d1bd cad2 61bf d7c8 09be
000003a0: 5059 8cbd 4ec9 95be 1a40 4abf 06b8 443d
000003b0: d82a 29bf 9621 babd 2854 49bf 962e 723e
000003c0: e2d4 13bc 9d12 1abe e99e 8fbe 4a2b 84bf
000003d0: adaf 973e 7eff 2abf 41a9 7cbd 48be efbe
000003e0: 54f9 1dbe e9c8 27bf 0683 a6be d4dc f53d
000003f0: 1b1b 31bf 4480 a73d 2c00 8abf 5b4b 65be
-0.31355548 -0.55086267 0.07297201 -0.8343401 0.23949692 -0.82714194 -0.008202797 -0.90380067
-0.3993155 0.16417289 0.10588255 0.02646321 0.018315827 -0.75196594 -0.49216878 -0.8610019
0.15372281 -0.11395698 -0.16089909 -0.6677606 0.104195684 -0.8422374 -0.62127316 -0.020118048
-0.71958435 -0.38497153 -0.75376654 -0.653257 -0.77205384 -0.8355572 -0.6911586 -0.40520412
-0.1346102 -1.1503068 -0.4619939 -0.6990264 -0.8888672 -0.0256894 -0.86655176 -0.2585314
-0.20473224 -0.18686539 -0.8445725 0.11636711 -0.63417184 0.13611886 -0.78566194 0.1483032
0.11653332 0.043381676 -0.293463 -0.902508 0.012745563 -0.5042951 -0.1254091 -0.6045876
-0.040188596 -0.8053863 -0.54202014 0.14800651 -0.8431836 0.08420631 -1.0246782 -0.19813845
-0.45604086 -0.5108531 -0.11588603 -0.7557245 -0.17180355 -0.62104833 -0.12218197 -0.5344697
-0.5575721 -0.25689876 -0.12844491 -0.2640543 -0.17567809 -0.6608273 -0.48787165 -0.6209975
-0.06393548 -0.3726484 -0.35070235 -0.5496956 -0.101982445 -0.6207386 -0.4776049 -0.2019833
-0.7814606 -0.46245053 -0.65158004 -0.61885077 -0.60879755 -0.58842355 -0.504243 -0.47896343
-0.1655646 -0.62746197 -0.4766761 -0.71868885 -0.6589387 -0.3719878 -0.5348496 -0.20976555
-0.36270145 -0.3994401 -0.616211 -0.0102258 -0.55246437 -0.16943394 -0.6320927 -0.07178174
-0.14433405 -0.28126267 -0.35919085 -0.7824799 0.065816805 -0.57058537 -0.121006824 -0.4517469
-0.31319812 -0.57975835 -0.55764663 -0.1797371 -0.60128975 -0.25695005 -0.6857069 -0.2906747
-0.07081161 -0.0015686448 -0.05535083 -0.119903885 -0.07736653 -0.01224817 0.048868608 -0.059345245
-0.0050289924 -0.028329015 0.017255265 0.07417406 0.049744904 0.021883052 -0.067581855 -0.11994829
0.1562842 -0.03768902 0.027347615 -0.058887124 -0.10902239 0.08648844 0.10503361 0.014131799
-0.028823433 0.04873091 -0.010766602 -0.036351185 -0.06718741 0.010512492 0.091941044 -0.015056057
-0.13074443 -0.051871974 -0.043108337 0.10828104 -0.07571657 0.00014023295 -0.033662364 0.0011509305
-0.04419047 0.09442367 -0.12313778 0.11074127 -0.020380348 -0.1273976 -0.034496672 -0.09144557
0.07217273 0.007454425 0.0893579 0.04672295 -0.11126353 -0.12786654 0.1624987 0.0357092
0.025524866 0.0025084696 -0.10346627 -0.025615823 0.038348075 -0.064225085 -0.06454833 0.05184747
-0.26789457 -0.49818283 0.03161352 -0.80528444 0.2704365 -0.7555138 -0.15160552 -0.90184563
-0.3905479 0.07472153 0.17775433 0.12464929 -0.12178676 -0.69295776 -0.47459942 -0.83850086
0.1746914 -0.25378963 -0.09590795 -0.55160147 0.011171252 -0.5779876 -0.64285684 0.02347142
-0.86765456 -0.20611581 -0.6636797 -0.67975295 -0.95207995 -0.73953825 -0.54728866 -0.3036164
-0.17627887 -1.1203456 -0.54427767 -0.85106784 -1.0107116 -0.10227166 -0.88212264 -0.1345552
-0.068529725 -0.29255146 -0.7900406 0.04802706 -0.66081 -0.09088437 -0.7864404 0.23650584
-0.009022923 -0.15046163 -0.28050926 -1.0325711 0.29626217 -0.667961 -0.06168485 -0.4682486
-0.15427142 -0.6554094 -0.32521838 0.1200501 -0.69181985 0.081787616 -1.0781302 -0.22392027

lstm.bias_hh_l0 f4 [256]
00000000: 5ba1 71be f628 0abf b385 a93d 20df 65bf
00000010: d71d 3e3e 5380 59bf f558 683d 71a4 5abf
00000020: 3b5f ebbe 7060 6e3d e84d 593d 7c06 f53d
00000030: d1d8 063c eef1 5cbf c532 04bf 3d52 34bf
00000040: 3c99 7d3c 12f5 2cbc a2da 8abe 6e47 14bf
00000050: 2e30 963d ad74 35bf 9694 07bf cf1c a93d
00000060: 20f6 56bf fa20 7bbe 5f98 48bf 8e21 0abf
00000070: 5829 3fbf 7683 56bf 2f71 06bf aa52 81be
00000080: af5d 45be af57 8ebf df07 f4be f35b 21bf
00000090: 2d28 53bf eb6e 91bd 5046 6abf c1b7 7fbe
000000a0: 96a6 7ebe bf37 95be de04 7abf 3471 90bc
000000b0: 54dd 2cbf 7156 b13d 310b 53bf 612e 223e
000000c0: c93e 073e 6519 833d 2c56 b0be 481e 63bf
000000d0: 3cd9 983d ea21 f2be 1fbf ddbd 3ed4 20bf
000000e0: c11e 68bd 2ff7 47bf acbe f2be 4fbb d43c
000000f0: b5df 4ebf 67ab b23c 2f80 91bf 1e22 e0be
00000100: 4fc4 f9be 0d2c 10bf da70 b8be b817 0dbf
00000110: a731 c83c 67db 0abf 1424 e6bd 1662 0dbf
00000120: 8cd8 03bf 0fd7 33be 413f 61be face 00be
00000130: f5ea 59be 43cd 3cbf e4ee d5be 01dc 31bf
00000140: aad6 92bd 155a 91be e266 83be df99 2cbf
00000150: 2fa5 0abe 86b1 14bf d251 05bf 65ce 84be
00000160: 9426 48bf a3b3 e8be 25ce 2abf d32c 1ebf
00000170: 3a2c 3ebf 9da6 e2be 2676 36bf 8af5 e6be
00000180: e8a4 6ebe c579 47bf 3038 f7be cc1f 17bf
00000190: 4ef9 3fbf a219 89be 26dd 01bf b97f b3be
000001a0: ebcc b8be dd42 78be 1453 29bf 5634 4dbe
000001b0: 5425 f2be 1ae1 99be 6b4d 4fbf 38a0 53be
000001c0: 28bf 1ebe d113 e5bd a7a7 ebbe 9498 4abf
000001d0: 7b3a ed3d 4144 d1be 3051 3bbe ab34 1cbf
000001e0: 4402 f5bd 330c 09bf e28a 22bf 681c 29bd
000001f0: 6bbf 2ebf 20c5 2dbe 6b78 57bf 5a75 77be
00000200: 8698 61bd b316 ba3c d34d e23d a4f0 863d
00000210: e335 94bc dfef 37bd 3280 863b 278c 63bd
00000220: 1802 81bd 5fdd 12be 878f c73d 2ef1 833d
00000230: 4f64 efbd 8c9a c6bc 9115 1b3d 59fb dbbb
00000240: 1725 ed3d 5caf 743d 12ed edbb 2900 073d
00000250: 4377 f1bd 7630 b6bd d3b2 a6bd 5f23 5cbd
00000260: 8930 b9bd e7dc eb3c e3cc 293c df58 973c
00000270: 695c c8bd 046c 893d 107b a9bd ad6a f7bc
00000280: 2524 2ebe 9748 d63c 8039 183e 744e 0dbe
00000290: 6850 f03c ca36 ce3c f503 ddba 828f f6bc
000002a0: 169b 52bb 92db 4a3e 568f 9fbc 9129 7d3d
000002b0: 766a 0838 715b 4fbd b609 97bb ad62 093c
000002c0: 4284 b73d b52f 533d 6c5e 0dbd 4038 43bd
000002d0: ab8e 7ebd 6a5c cc3c 7560 87bd 8399 033d
000002e0: 0146 643d 5cc0 933d 0176 a23c a262 b0bd
000002f0: 52c2 f0bd 7913 63bb fb06 803c d1e5 0abd
00000300: 6faa 3dbe b143 13bf 3799 9dbd 4338 79bf
00000310: 1544 233e 6e53 45bf def6 a6bd c8e2 3fbf
00000320: 65bd 10bf a973 0d3e 8c38 b33c 9506 133e
00000330: b638 0abd 0fb3 28bf 25e2 06bf 97e6 2cbf
00000340: 27d4 943d 02df 0abe 59e5 84bd 4daa 36bf
00000350: 5959 863d 3711 1cbf ba6f 20bf 40f6 5bbd
00000360: 47cb 41bf 5bec adbe dc29 31bf aad1 1ebf
00000370: dbb1 3abf d13c 52bf 8b98 29bf 203f 63be
00000380: f341 91be 632b 88bf de22 fabe a305 1fbf
00000390: 9627 59bf 2068 2bbe 363d 4bbf 1b1b 9ebd
000003a0: 0e5a debd 8f07 47be 3e7c 5dbf aeb0 0f3e
000003b0: f011 f8be 5181 103e 7cb1 70bf b37b 7f3e
000003c0: 6347 f83c 17ae 973d 51b8 b7be a5e3 6cbf
000003d0: 0318 843e e2f3 11bf b1cd 16be 14f6 e0be
000003e0: c315 ccbd 89a0 2bbf 6d5d f2be 8e83 b9bd
000003f0: d748 64bf 8e74 303e ae77 77bf 9211 b5be
-0.23596708 -0.5396875 0.08277454 -0.89793587 0.1856607 -0.8496143 0.05672546 -0.8540717
-0.45971093 0.05819744 0.053052813 0.119641274 0.008230404 -0.86306655 -0.5163997 -0.70437986
0.015478428 -0.010556476 -0.2711993 -0.57921493 0.07333408 -0.7088116 -0.529611 0.08257448
-0.83969307 -0.24524298 -0.783575 -0.5395745 -0.7467246 -0.83794343 -0.52516454 -0.2525838
-0.19274019 -1.1120509 -0.47662255 -0.6303093 -0.8248318 -0.07101234 -0.9151354 -0.2497244
-0.24868235 -0.29144093 -0.97663677 -0.017632104 -0.6752522 0.086590655 -0.8243895 0.15838005
0.13207544 0.06401328 -0.34440744 -0.8871808 0.07463309 -0.472915 -0.10827469 -0.62823856
-0.056669954 -0.7811155 -0.47411096 0.025968222 -0.808101 0.021810247 -1.1367244 -0.4377603
-0.48782584 -0.56317216 -0.360236 -0.55114317 0.024437739 -0.5424103 -0.1123735 -0.5522779
-0.515023 -0.17562507 -0.21996786 -0.12578955 -0.21281035 -0.73750705 -0.41783822 -0.69476324
-0.0716985 -0.2838904 -0.2566443 -0.6742229 -0.13539575 -0.5808338 -0.5207797 -0.25938717
-0.78183866 -0.45449552 -0.667208 -0.61787146 -0.74286234 -0.4426774 -0.7127403 -0.45109206
-0.23305094 -0.7792018 -0.48285055 -0.59032893 -0.74989784 -0.2677737 -0.5072807 -0.35058382
-0.3609384 -0.24244256 -0.6614239 -0.20039496 -0.47294104 -0.3005455 -0.80977505 -0.20666587
-0.15502608 -0.1118542 -0.46026346 -0.79139066 0.1158342 -0.40872386 -0.1829269 -0.61017865
-0.11963323 -0.5353424 -0.6349317 -0.041286856 -0.6826083 -0.16969728 -0.8416812 -0.2416586
-0.0550771 0.022715902 0.1105 0.06588867 -0.018092101 -0.044906493 0.0041046375 -0.05555358
-0.062992275 -0.14342259 0.097441725 0.06442486 -0.11689054 -0.024243616 0.037862364 -0.0067133126
0.1157934 0.05973755 -0.007260927 0.032959137 -0.117903255 -0.08895962 -0.08139577 -0.05374467
-0.090424605 0.028791858 0.01036379 0.018474994 -0.09783251 0.067100555 -0.082754254 -0.030202234
-0.17005976 0.02615766 0.14865685 -0.13799459 0.029335216 0.02517261 -0.0016862141 -0.030097727
-0.0032135895 0.19810322 -0.019477528 0.06180722 3.2524076e-05 -0.050624315 -0.004609312 0.008385343
0.08960773 0.05155917 -0.034513876 -0.047661066 -0.062147778 0.02494641 -0.066101946 0.032128822
0.055730823 0.07214424 0.01983166 -0.08612563 -0.11755814 -0.0034649058 0.015628329 -0.033910576
-0.18522047 -0.57525164 -0.07695239 -0.97351474 0.1594394 -0.7708043 -0.08152555 -0.74955416
-0.56538993 0.13813652 0.02187755 0.1435798 -0.03374549 -0.6589822 -0.5268882 -0.6753935
0.07267027 -0.13561633 -0.06489057 -0.7135361 0.065600105 -0.6096377 -0.6267048 -0.05370164
-0.757008 -0.33969387 -0.692045 -0.6203867 -0.72927636 -0.8212405 -0.6624839 -0.22192049
-0.28370628 -1.063824 -0.48854727 -0.62117976 -0.8482603 -0.1673894 -0.79390275 -0.07720014
-0.1085702 -0.19436477 -0.86517704 0.14032242 -0.48451185 0.1411183 -0.9402082 0.24949531
0.030307477 0.07406252 -0.3588281 -0.9253486 0.2579957 -0.5701276 -0.14726903 -0.43937743
-0.09965088 -0.6704183 -0.47336903 -0.09058295 -0.89173645 0.17231962 -0.9666699 -0.35364968

lstm.weight_ih_l1 f4 [256, 64]
00000000: f09a a03e 1cd4 3bbd bd95 313e f198 a13d
00000010: cf9f 30bd 2b7f b03d c6e8 37be 3339 97bd
00000020: e379 c33e 2ebe 1a3d 679e 123d 02b2 873d
00000030: 28f2 18be 07d0 84bd 1268 a83d 235f 453d
00000040: f0f3 a83e 285e 29be a7aa 8bbd d7e5 ff3d
00000050: 4bb5 6a3d 7ad0 aebd 910d 54bd cb9b 953d
00000060: 30c3 9abd c865 5fbd e4a8 cbbd 3e49 de39
00000070: 5b95 12be 7798 273c 7583 b23d eb34 88bc
00000080: 9028 1bbe ced4 2b3e 6385 8e3d f435 0a3e
00000090: 9455 bd3c 0d2b 8f3d 672e 783d 6668 113d
000000a0: 3447 bbbd e4bb 8bbd 4044 143d 58ba e33e
000000b0: 2279 553e 0d94 443e 2433 97bd d9e1 df3d
000000c0: 203b 87be 14e7 bd3d 2b32 83be 3829 ad3d
000000d0: 76f4 dd3c 075b 7dbc ceea 843e d03c 77bd
000000e0: 9c65 29be e2f9 4f3e 5b4d d5bd 26a8 8e3c
000000f0: 15f5 a9bc 0055 d6bd 06f9 8d3d ea70 b0be
00000100: ad86 ba3d 1122 74bd fdb1 8e3e e04f 78bd
00000110: 07dc 7fbe 781e 8fbe ab40 b7be f5e0 d23d
00000120: 01eb 8f3e bba4 41bd b426 7abd 61a5 b8bd
00000130: 7734 32be dd32 8a3e fdfa 8e3e 364d dc3d
00000140: c31a 953e e397 25be e5a7 c7bd 31cb d13e
00000150: 183a 1c3e d786 683d f8d8 acbe 1b7a 393e
00000160: 3e21 a9bd 684e 04be 4085 463c defb 75be
00000170: ae94 9a3e 6851 e5bc de75 8d3d 35fb 003e
00000180: 1a16 a7be e260 00bd 3c59 2e3e 7d53 6e3e
00000190: cd7a dabd edd6 95bd 2089 30bd 085c 3dbd
000001a0: 2fd8 49be b94c 2dbd 33f7 c43d c434 ad3e
000001b0: 8d3f 353e a709 d63d 93b9 adbc afe8 673e
000001c0: 91c4 51bd 39a7 d13c acf6 93be 5675 09bd
000001d0: d65f 9d3e 4532 8fbe ffc3 593e b8ad 883d
000001e0: 1203 693c 973a fc3d 9b02 5cbe 2211 91bd
000001f0: a198 063e 0f22 6abe 9431 e7bc a6ba ddbe
00000200: 0389 803d 05a6 03be e4d8 413e 79ff 01be
00000210: a9e5 dabd 4f48 a3bd 05a8 66bd e05b 923e
00000220: 5e3e fe3d ba95 89bc 958c 2f3e 3ca5 bb3d
00000230: 1e66 d8bd 4742 7e3d 40f9 663e cd5f ec3c
00000240: 4cb5 913e 0133 073d 32f9 acbd 66c9 233e
00000250: 0640 d73d 6da4 8d3d 9805 4cbe 49a2 1fbd
00000260: 5741 4c3d 0074 e1bd d20b 36be c853 703d
00000270: 937f 0d3e 1bdf 183e 3089 143d 9503 a7bc
00000280: 17c3 80be c5b6 dd3d e392 ecbc 94e6 25bd
00000290: 4045 dfbc d164 42bd 5dc9 373d 1880 003e
000002a0: bdc9 13be 84df a8bd 6bae 643c 2e93 453e
000002b0: 8cae 3f3c 5bd3 883e 140d cebc c563 6d3e
000002c0: 4ddc 36bd ab6e d43d 4a16 61be b0cb 9fbd
000002d0: 9b34 0f3d 98c9 70bd 5a0b 8f3d 77d2 c0b8
000002e0: 48ce 42bd 0e53 b0bd 3c35 3abd 3fec 3abd
000002f0: 3079 04bd 0aca 86be ba53 28bc f053 b7be
00000300: e7ad ab3c 7b36 443d 8bcf f53b 1992 913d
00000310: 4362 8bbd 6ec0 d6bd 67ef e4be 88b5 57bc
00000320: fb25 483e 942c 053e 51d2 2abe 4598 413d
00000330: a8bb b6bd 51ae 0fbd 91fe 8d3d fa67 963e
00000340: e7a5 b43d 73d2 1e3e a363 043d 8194 43bd
00000350: cb01 d539 7fed 293e 7b4d 46bd 2f0e d339
00000360: 356e 61be fc0c 0b3d 4016 873c 03f5 36be
00000370: 60e3 243e c6df a23d 98cf 58bd d8b2 1e3e
00000380: 8782 8dbe 1785 d2ba 533f 153d 1f41 353c
00000390: f257 21bd 8741 88be ea89 0a3e d625 2cbe
000003a0: ebc0 6b3c 1bcf 7e3c afb1 10ba 26b8 4b3e
000003b0: 36f6 d03d 9f38 b13d a0d8 5d3d 20eb 0a3d
000003c0: 3706 90be a721 033c 07a7 73be 9533 263e
000003d0: a915 1d3e 2eea 2abe c72a e4bc 678e fd3d
000003e0: b9ab 38bc b092 b93d eb91 7fbd 1b08 67bd
000003f0: 623e 5438 5011 4abe db46 10bd e4d8 70be
0.31368208 -0.04585658 0.17342277 0.078904994 -0.043121155 0.08618005 -0.1795989 -0.07383957
0.3817893 0.037779026 0.035795595 0.06625749 -0.14936125 -0.064849906 0.08222975 0.048186433
0.3299861 -0.16539824 -0.06819659 0.1249501 0.0573018 -0.085358575 -0.05177075 0.07305106
-0.0755676 -0.054540426 -0.09944323 0.0004239771 -0.14314787 0.010229222 0.0871648 -0.016626796
-0.15152192 0.16780397 0.06959035 0.13497144 0.023112096 0.06990633 0.060591128 0.035499953
-0.0914444 -0.06822947 0.0361979 0.44478106 0.2084699 0.19197102 -0.07382801 0.10931749
-0.26412296 0.0927259 -0.25624213 0.084551275 0.027094107 -0.015463597 0.25960392 -0.06036073
-0.16542667 0.20310166 -0.10415145 0.017414164 -0.020746747 -0.10465431 0.06932263 -0.34461147
0.091077186 -0.0596028 0.2787017 -0.06062305 -0.24986278 -0.27952933 -0.35791525 0.102968134
0.2810898 -0.04727624 -0.061072066 -0.090159185 -0.17402826 0.2699193 0.27925864 0.10756914
0.2912198 -0.16171221 -0.0974882 0.40975335 0.15256536 0.05676922 -0.33759284 0.18112986
-0.082582936 -0.12920535 0.01211673 -0.24021861 0.3019156 -0.02799292 0.06907247 0.12595828
-0.3263405 -0.031342395 0.17026228 0.23274036 -0.10667954 -0.073163845 -0.043099523 -0.046230346
-0.19711374 -0.042309497 0.09617462 0.3382932 0.17700024 0.1045106 -0.021206653 0.22647355
-0.05121285 0.025592433 -0.28899133 -0.033559166 0.3073718 -0.2796804 0.21266173 0.06673759
0.014221923 0.123158626 -0.21485369 -0.07083346 0.13144161 -0.22864555 -0.028221883 -0.43306464
0.06276133 -0.128563 0.18930393 -0.12695111 -0.106883354 -0.07972776 -0.05631258 0.2858572
0.12414239 -0.016795028 0.17143472 0.09162375 -0.10566352 0.062074926 0.22556019 0.028854275
0.2845863 0.033007625 -0.08445968 0.15994796 0.105102584 0.06916127 -0.19924009 -0.038973127
0.049867 -0.11008453 -0.17777947 0.05867365 0.13818197 0.14928858 0.036263645 -0.02038745
-0.25148842 0.10825876 -0.028878635 -0.0405031 -0.0272547 -0.047459427 0.04486977 0.12548864
-0.14432426 -0.08245757 0.0139576 0.19294426 0.01169933 0.2672375 -0.02515272 0.2318259
-0.04464369 0.10372671 -0.21981159 -0.07802522 0.034962278 -0.058786005 0.06984587 -9.1944756e-05
-0.047560006 -0.086095914 -0.045460925 -0.045635458 -0.032342136 -0.2632602 -0.010273868 -0.35806227
0.020956947 0.04790352 0.0075015477 0.07107944 -0.06805851 -0.10485922 -0.447139 -0.013165839
0.19545738 0.13005286 -0.16681792 0.047264356 -0.08922511 -0.03507835 0.0693332 0.29376203
0.08820706 0.15509968 0.032321583 -0.047749046 0.00040627862 0.16594504 -0.048413735 0.00040255624
-0.22014697 0.03394793 0.016490102 -0.17866902 0.16102362 0.07952838 -0.05293235 0.15497911
-0.27638647 -0.0016061392 0.036437344 0.011062889 -0.03939051 -0.26612493 0.13529173 -0.16811308
0.014389257 0.0155523075 -0.0005519641 0.19894466 0.10203211 0.08653378 0.054161668 0.03391564
-0.28129742 0.008003629 -0.23794185 0.16230614 0.15340294 -0.16690895 -0.02785243 0.12380677
-0.011271411 0.090611815 -0.062395018 -0.056404214 5.0602837e-05 -0.19733167 -0.035223823 -0.23520237

lstm.weight_hh_l1 f4 [256, 64]
00000000: 797d 093e 258a 61bc 40c9 85be 58b9 693d
00000010: a588 a03e 57d8 fb3e 3bca 1abd b334 67be
00000020: f694 393e db86 713e e30a 0f3d b0f1 183e
00000030: 0aba 9e3e 48e7 923e b876 b6bd 1060 dfbc
00000040: 5077 923e f3b2 01bd 73c2 25be 7cd3 abbe
00000050: 4b1d 71be 8eff 9ebe 45f4 f9bd 8f75 efbd
00000060: 4fdb 7b3e 2d4a 1bbe 8143 733e f591 223e
00000070: b0b5 403f 0fe8 bc3d 2594 a53e 083b 533d
00000080: 382d 1fbf cf6e 193e 6db4 85bd 0f2b 543e
00000090: d46f aa3e e670 963e 0f2f 1fbf 7638 b0bc
000000a0: e7cd e4bd 25e3 d2be 6788 17bd 7c9e 05be
000000b0: 8743 313d e8a7 cd3e 249d 68bd 8e80 423e
000000c0: d95f ef3c 11d2 8a3e 0ce9 25be 5e05 123e
000000d0: 719a 323e 0c94 033e fbdd 6a3d 5628 bdbd
000000e0: f393 87be b5b6 b83d 6ba0 53bd ff77 c6be
000000f0: 372d dc3d 65cb 9cbd 3433 423e 486b 9bbd
00000100: 3290 a13e f3ee 64bd 3065 11be 0fef 663e
00000110: 1f7b 993e 4066 e53e 3bda d73d 6189 0cbe
00000120: 62e0 c53d fddf 393e 424a 433e e02c 8d3e
00000130: 3321 913e 79b4 b03e ad61 0cbd 059f 3abe
00000140: db60 263e 1602 c5bd ebee b83d 8d98 f9bd
00000150: 50cc a7be 20a1 bdbd 916e 00be 496e b8bd
00000160: 75e5 773d 828e aabc 1b98 bc3e a8a6 993e
00000170: f482 8e3f 6995 433e 1e43 fc3c f7a0 2ebc
00000180: 10c8 febe ca66 45bc 53ba 01be 2c6a 893d
00000190: 5575 4d3e 7e9e 1b3e 672e 7cbf 7c82 d73d
000001a0: 8f46 79be 9ce4 37be 6189 16bc 2a0e 803b
000001b0: 6a3f f1bd 000e 9d3e 7023 b0bd 90ca 2b3e
000001c0: 4295 5f3e 84c0 933e b171 aabc 6ad3 5c3e
000001d0: bcf5 5a3d 8f73 303e ca74 033d c9a2 533d
000001e0: a8d4 3ebe 37dd 85bd 9d76 15be 32d4 bbbd
000001f0: 7a85 4d3e e7ee 44bd de36 553e 9abb c3bd
00000200: 556e 993e 2e80 40bd 304f dfbd a3ec 833e
00000210: 4be2 833e 0b09 6a3d 09b9 cd3d 65be 75be
00000220: 078d 933d dbb6 303e cb12 2b3d 106d 423e
00000230: 60bc b43e 7b8e 9a3d 8eca b1bb a88d 48be
00000240: 330f 5e3e 01d1 71be be5b b03d e2e8 a2be
00000250: 2d2c 23be bb0e abbe 11c4 48be 73ca 353d
00000260: 9b84 6c3e 51ba 27be 15b7 7a3e 1ec3 133e
00000270: 23a3 423e 897b 19bd d0b5 2a3e ee08 c63d
00000280: 8d1e 38bd f887 1d3e 5adc 04be ee29 563e
00000290: cd56 c53d f73b ec3d 45e3 25be d62b 923e
000002a0: 2e1f 80be a592 9cbe 4270 e2bc f490 24be
000002b0: d1c3 75be 9bd0 6c3e eb04 1cbd 9622 7a3e
000002c0: 4c6b 50bd 94bd 563e 02f2 1fbe deea 1c3e
000002d0: 2b9b 6a3d f80e 0c3e b017 71be 2b65 8e3d
000002e0: efaf 9bbd c74d d63d 26f4 21bd a8da c7bd
000002f0: 5b98 433e cb27 d1bd 898b 963e 5b7d 67be
00000300: 52cc 0d3e 7726 6dbe 35e1 cbbd 644c 0b3e
00000310: f869 673e 8368 353f a10f 1c3e b8ce 293d
00000320: d95a 4c3e b54a 453e 087a cabd 746d 8c3e
00000330: 6b2e 843e 170e d03d f280 a3bc 3711 33be
00000340: ae25 493e fcf2 0bbe 5df7 0c3e d9df 21be
00000350: d9ba 9fbe c555 afbe 314a 0fbd 6164 5a3e
00000360: f2bd 623e 6c09 89bd 17f9 353e 2e80 3d3e
00000370: ca79 8e3f 5941 7f3d e604 0f3e 05e1 fb3d
00000380: cf4f b1be 58a4 2d3e 4005 f3bc 1a6f 813d
00000390: 2727 053e 1440 f73d 598f 82bf e753 583d
000003a0: 75fa 88be 6145 5ebe 6579 4dbd 160f 36be
000003b0: aa7c 2abe 7bb9 533e 312a d13d 6f32 d83d
000003c0: 9149 8c3c 7399 3f3e 751a 623d 6903 c03e
000003d0: 5626 453e 4160 533e f395 02be bcde 20ba
000003e0: 9d34 87bd 359b f23d 8931 4ebd b618 2ebe
000003f0: 5e02 393d c394 073d ab83 153d d6f8 2fbe
0.1342677 -0.013765846 -0.26130104 0.057061523 0.31354252 0.49188492 -0.03779052 -0.22578697
0.1812323 0.235866 0.03492249 0.14935946 0.31001312 0.2869208 -0.089093626 -0.027267486
0.28606653 -0.0316648 -0.16187458 -0.33559787 -0.2354633 -0.31054348 -0.12204794 -0.116923444
0.24595378 -0.15165015 0.2375622 0.1587599 0.75277233 0.09223949 0.32339588 0.05156997
-0.62178373 0.14983676 -0.06528554 0.2071955 0.33288443 0.2938301 -0.6218118 -0.021511298
-0.11172085 -0.41188923 -0.036995318 -0.13048738 0.04327729 0.40167165 -0.056790486 0.18994352
0.029220508 0.27113393 -0.16202182 0.1425986 0.17441727 0.12849444 0.057340603 -0.09236209
-0.26480064 0.090192236 -0.05166666 -0.38763425 0.107508115 -0.07655982 0.18964845 -0.07588822
0.31555325 -0.055891942 -0.14198756 0.22552131 0.29976746 0.44804573 0.10539671 -0.13724281
0.09661938 0.18151851 0.19071296 0.275733 0.28345641 0.3451269 -0.03427284 -0.18224724
0.16247885 -0.096195385 0.09029945 -0.121873 -0.32773066 -0.09259248 -0.12542178 -0.0900541
0.06052156 -0.020819906 0.36834797 0.3000996 1.1133714 0.19099964 0.030793723 -0.010658494
-0.4976201 -0.012048433 -0.12668733 0.06709704 0.2006429 0.15197179 -0.98508304 0.10522935
-0.24343322 -0.17958301 -0.009188027 0.0039079385 -0.117796734 0.30674744 -0.08600509 0.1677649
0.21834281 0.28857815 -0.020806165 0.21565023 0.053457007 0.17231582 0.0320938 0.051668916
-0.1863581 -0.06536334 -0.14596029 -0.091713324 0.20070449 -0.048079398 0.20821711 -0.095572665
0.2996699 -0.04699724 -0.10903776 0.25766477 0.25758585 0.05713753 0.10045058 -0.23998411
0.07204633 0.17257254 0.04176597 0.18986917 0.3529997 0.07546707 -0.0054257577 -0.19585288
0.21685486 -0.23614885 0.086112484 -0.318183 -0.1593482 -0.33409676 -0.19606043 0.044382524
0.2309746 -0.16379668 0.24483903 0.144299 0.19007544 -0.037471328 0.16670918 0.09669672
-0.04495101 0.15383899 -0.12974682 0.20914432 0.096356966 0.11534875 -0.16199978 0.2854907
-0.25023788 -0.3058063 -0.02764142 -0.1607092 -0.2400048 0.23126452 -0.038090628 0.24427256
-0.050883576 0.20970756 -0.15619662 0.1532397 0.057276886 0.13677585 -0.23544192 0.0695289
-0.07601916 0.104640536 -0.03953948 -0.09758502 0.19101088 -0.10212668 0.29403332 -0.22606413
0.13847473 -0.23159204 -0.09955064 0.1360336 0.22599018 0.708626 0.15240337 0.041456908
0.1995653 0.1926678 -0.09886557 0.27427256 0.25816664 0.101589374 -0.019958947 -0.17487036
0.1964328 -0.1366691 0.13766237 -0.15808047 -0.3119724 -0.34245124 -0.034982864 0.21327354
0.22142771 -0.0669125 0.17770801 0.18505928 1.1130917 0.06231818 0.13966712 0.122987784
-0.34631202 0.16957223 -0.02966559 0.06320019 0.13003217 0.12072769 -1.0199996 0.05281439
-0.26753584 -0.21706153 -0.0501646 -0.17779192 -0.16649118 0.20676224 0.102131255 0.105564944
0.017124923 0.1871088 0.055201013 0.37502602 0.19252905 0.20642187 -0.12752514 -0.00061367056
-0.06601832 0.1184601 -0.05034021 -0.17001614 0.045168273 0.033100855 0.03650252 -0.17184767

lstm.bias_ih_l1 f4 [256]
00000000: b302 23bf 6eb7 1ebf 7c43 7fbe 8e6a 0bbf
00000010: 0d3d b23d 7fae ccbd 2b3d 26bf f7b7 fabe
00000020: 50ae fcbe 7168 55bf a77e 8bbf 39a1 30be
00000030: 151d fcbc 8bf2 d0be bdb3 50bf 0f3b 54bf
00000040: d8dc f5be c9d6 04bf 190a 1fbf 3c0b 81be
00000050: c6bf 12bf 2d52 f5be ad9a 57bf 7878 81bf
00000060: 3959 febe 7c9f 51be e831 0bbf 15f5 30bf
00000070: 5180 94be 53bd 6bbf 0f8a 8e3d f498 37bf
00000080: a490 58be a8ee f2be b972 44bf 4a9b 36bf
00000090: 5464 f2be 70c2 c4be 8a71 efbd 2042 13bf
000000a0: de60 30bf ba9a 14bf 1fe5 4dbf 1f68 3bbf
000000b0: 92a9 bfbe 6b9b c1bd 1a13 36bf a354 52bf
000000c0: d541 18bf 49ff e8be 1691 06bf 7879 42bf
000000d0: 70f8 0ebf 502a 59bf 0613 59bf f65a 70bf
000000e0: 846b f9be b2d3 1cbf 4564 26bf 5a55 16bf
000000f0: f7cd 72bf 2dbf 8cbe 4ca7 56bf d9ee 5abf
00000100: 4ea2 00bf 49f9 0cbf e44e 13bf fa83 2cbf
00000110: 3b1f 15bc 2ea8 48be 0f0f 3abf 3842 b9be
00000120: 9c88 00bf 3fd0 01bf c19e 58bf 0882 38be
00000130: 83af 96be 78e1 ecbe 7079 40bf 81f2 33bf
00000140: 98fa 12bf f318 d8be 8e10 08bf 0ab8 16bf
00000150: 1370 3cbf 684e dcbe d178 3dbf af92 1abf
00000160: 5f73 02bf 3a7d febe 8a42 cbbe a39b 1dbf
00000170: 3c69 eebd 7d62 2fbf b032 edbd 7220 63bf
00000180: a51a 8abe 0023 14bf 0daa 0cbf 9056 23bf
00000190: 4512 b4be a7f1 06bf bc5e 64be 7dd6 12bf
000001a0: cd82 33bf c12b 1bbf 53f3 2cbf 29c5 1fbf
000001b0: e1cc c5be 37e1 f2bc 1303 32bf 1f56 1cbf
000001c0: 531e 2dbf ec0d 10bf 7263 29bf bcc7 30bf
000001d0: e4b6 dfbe ba51 2ebf dcd3 5ebf d0a9 46bf
000001e0: 789d 0bbf 2ddb 15bf 8664 4dbf 7059 eabe
000001f0: 341b 52bf ad5a dfbe bf28 f2be 6b7f febe
00000200: b0f9 d5bd 30bc 6d3d 146f 96bd b9b9 c6bd
00000210: d1b8 44be 9439 3bbe 7026 2d3c 2477 633d
00000220: d506 3a3d f4f0 43bd 7c3d 9e3d 660e 72bd
00000230: cba1 d9bc 1161 ebbc c17f 80bd a719 133d
00000240: 7ba0 613d 9a0f e53c bde8 0a3d 95e7 02bd
00000250: a0c0 153d 21ac 993d b00f f13c 9303 99bc
00000260: 48fa 173d f489 f6bc 0c53 3f3a 1a7f 603c
00000270: d387 2abe 8b52 3d3b ad01 d53c f7dc 353d
00000280: fa61 283d 7cd4 89bc 443e c1bc 97dc af3c
00000290: aad6 483d 4532 cb3a 68a9 013e 69b4 9db9
000002a0: 3f9b 0cbd 8faa 1bbd 11c4 213c c868 e83d
000002b0: 615f cdbd 59d9 5dbb 7732 d6bd 866b 49bd
000002c0: 5472 533d e081 a9bd 28f5 9cbd 6704 de3d
000002d0: e99e 6e3d bfa6 6c3d 7dab cb3c b0da a03d
000002e0: 4a30 92bd 4bdf eabd bcde 8abd 3833 70bd
000002f0: 274c 223c 5e12 f5bc c1fe bfbb e268 423d
00000300: 497c 3dbf 161b 48bf 6fa9 06bf 59c1 2ebf
00000310: 471a 303e a4df 15be 4c70 4ebf 50ae 21bf
00000320: 8bf6 eabe 86a4 4bbf a356 82bf bb8e b4be
00000330: 1465 04bf eb6b 1bbf 739c 40bf b974 50bf
00000340: 2849 21bf 5d24 15bf e7e3 1bbf 624c fbbe
00000350: 7253 23bf 1f38 12bf 9a73 4ebf 59b7 6bbf
00000360: 60c9 dbbe 8f2a a4be f917 10bf 8e23 40bf
00000370: 1cd2 0dbe d7d4 4abf 8d7b e43d 93f9 32bf
00000380: d38a 2cbe 4d56 0ebf b187 5dbf 09e1 18bf
00000390: 9c19 17bf 866f 16bf add5 25be 9d68 3fbf
000003a0: 2036 3ebf 41ad f3be b2f1 5abf a787 31bf
000003b0: 3e12 0bbf f1d8 3f3e e48c 55bf 5126 64bf
000003c0: bbb0 4bbf ba71 01bf a147 0abf 768a 50bf
000003d0: 6e82 33bf e864 3ebf 6927 77bf f6ad 67bf
000003e0: b128 05bf 9ff3 4dbf 5856 33bf dd97 0fbf
000003f0: 623d 57bf ba35 05bf a146 24bf b8e6 42bf
-0.63675994 -0.6199864 -0.24928087 -0.54459465 0.08703051 -0.0999422 -0.64937085 -0.4896848
-0.4935174 -0.8336249 -1.0898026 -0.17249002 -0.030775586 -0.40810046 -0.8152426 -0.82902616
-0.48020053 -0.51890236 -0.6212478 -0.25203884 -0.57323873 -0.47914258 -0.8422039 -1.0114889
-0.49677446 -0.20470995 -0.54373026 -0.69123966 -0.29004148 -0.9208576 0.06959926 -0.7171776
-0.21148926 -0.47447705 -0.7673755 -0.713307 -0.4734217 -0.38429594 -0.11691578 -0.57522774
-0.6889781 -0.58048594 -0.80427736 -0.7320575 -0.3743406 -0.09453472 -0.71122897 -0.82160395
-0.5947545 -0.45507267 -0.52565134 -0.75966597 -0.55847836 -0.8483019 -0.8479465 -0.93888795
-0.4871484 -0.6126052 -0.6499675 -0.58723986 -0.9484553 -0.27489606 -0.83849025 -0.855207
-0.5024766 -0.5506788 -0.5754225 -0.6738888 -0.009101684 -0.19595405 -0.7267923 -0.36183333
-0.5020845 -0.50708383 -0.8461724 -0.18018353 -0.2943078 -0.4626577 -0.751853 -0.70291907
-0.57413626 -0.42206535 -0.5315026 -0.5887457 -0.7360851 -0.4302857 -0.74012476 -0.6038007
-0.5095729 -0.49704915 -0.39699203 -0.6156561 -0.116411656 -0.68509656 -0.115819335 -0.8872138
-0.26973453 -0.57865906 -0.54946977 -0.6380396 -0.3517019 -0.5271248 -0.22301763 -0.57358533
-0.7012146 -0.6061364 -0.67558783 -0.6241022 -0.38632873 -0.029648406 -0.6953594 -0.6106891
-0.67624396 -0.56271243 -0.66167367 -0.6905477 -0.43694222 -0.68093455 -0.8704202 -0.77602863
-0.54537153 -0.5853756 -0.8023151 -0.4577136 -0.8207276 -0.43623868 -0.47296712 -0.49706587
-0.10448015 0.058040798 -0.07345405 -0.097033925 -0.19211127 -0.18283683 0.010568246 0.055533543
0.04541667 -0.047837213 0.07726571 -0.059095763 -0.026566407 -0.028732808 -0.06274367 0.035913136
0.055084687 0.027961541 0.033913363 -0.031959135 0.036560655 0.07503534 0.029426426 -0.018678462
0.03710392 -0.030095078 0.0007298447 0.013702178 -0.16653375 0.002888831 0.026001776 0.04440018
0.041109063 -0.016824953 -0.02358926 0.02146749 0.049032845 0.0015502652 0.1266228 -0.0003007979
-0.03432774 -0.038004454 0.009873406 0.113481104 -0.10027958 -0.0033851473 -0.10458844 -0.049174808
0.051622704 -0.08276725 -0.07663947 0.108406834 0.058257017 0.05777621 0.024862045 0.07854211
-0.07138117 -0.11468371 -0.067807645 -0.058642596 0.009905851 -0.029915985 -0.0058592265 0.047463305
-0.7401777 -0.7816633 -0.52602285 -0.68263775 0.17197524 -0.14636093 -0.806401 -0.63156605
-0.45891222 -0.7954792 -1.018269 -0.35265145 -0.5171673 -0.60711545 -0.7523872 -0.81428105
-0.6300225 -0.5825861 -0.60894626 -0.49081713 -0.637992 -0.57116884 -0.80645144 -0.9207664
-0.42927074 -0.3206372 -0.5628658 -0.7505425 -0.13849682 -0.7923102 0.11156378 -0.6991207
-0.16849832 -0.55600435 -0.86535174 -0.59718376 -0.5902345 -0.5876392 -0.16194792 -0.74769
-0.7430134 -0.4759312 -0.8552505 -0.69347614 -0.5432471 0.187351 -0.8341811 -0.89120966
-0.79566544 -0.5056416 -0.5401555 -0.81461275 -0.70120895 -0.7437272 -0.9654451 -0.9049982
-0.52015215 -0.8044986 -0.70053625 -0.560911 -0.8407804 -0.52035105 -0.6417027 -0.761333

lstm.bias_hh_l1 f4 [256]
00000000: c23e 34bf 74bd 46bf ce69 1ebe 6f8c 37bf
00000010: 3bf1 8cbc 9dbf 0fbe 0302 3abf 7d7b 1abf
00000020: cba1 2bbf 8951 22bf c2cd 8abf 8de9 51be
00000030: afae 05bd 5d6d f8be 19d9 38bf ee2b 6ebf
00000040: 9452 15bf 72db 2abf 03a2 26bf 9bd9 77be
00000050: 5ee1 f8be fe51 0ebf 8d48 54bf 9bd4 51bf
00000060: c381 11bf cad6 0ebe dd28 ccbe 1b74 42bf
00000070: dd39 9ebe 2cd0 4dbf ab5d 45bd 01a5 65bf
00000080: f7ad b6bd 5f2b 00bf 5fe6 42bf 236b 2fbf
00000090: 0066 05bf 8e93 03bf 4a93 a1be 65f6 31bf
000000a0: 06fa 28bf 0358 39bf e0ea 41bf c70c 41bf
000000b0: cf11 f4be 0fd0 053d 7c27 3fbf 8969 5cbf
000000c0: 731c 2dbf 1e7f 0bbf 1b70 08bf 36a5 3abf
000000d0: 1151 19bf 987c 30bf 2803 74bf d6b0 66bf
000000e0: 064b 07bf 4ca6 2cbf c07d 45bf 2619 dcbe
000000f0: c708 5abf 6c26 6ebe 4a18 3abf 7c2d 3abf
00000100: 12fe 0ebf 09f6 1ebf db3f f4be 7a48 15bf
00000110: 0e5e 443d 9cb6 debd 00a5 2ebf 0284 c5be
00000120: 1ae5 29bf 8130 30bf 5b57 67bf 9ab3 f5bd
00000130: 491c 43be e747 12bf eb18 1bbf 1f3c 30bf
00000140: 71ee 07bf 2aa1 08bf ea34 1bbf c9d2 fcbe
00000150: 18f4 54bf 84cb e9be 462d 44bf 3677 23bf
00000160: 462c 07bf bdef ffbe c6ec 14bf 09b9 0bbf
00000170: 587a 3bbe 04c6 5abf 5e82 6a3d 2c2e 31bf
00000180: 2643 96be 6470 c6be f187 2fbf ec14 16bf
00000190: 48d6 11bf e7c9 b4be 7427 0bbe eb2c 08bf
000001a0: c507 06bf 71e7 1bbf 45f2 20bf 01c9 16bf
000001b0: 219c dfbe 1cf2 8d3d f91f 57bf 02fc 1bbf
000001c0: ed18 12bf 4fe7 bfbe fa30 0ebf 7a3d 28bf
000001d0: e009 c4be bf8c 0bbf 0d06 3dbf 14e9 47bf
000001e0: f276 b4be 7d66 21bf c7a7 2ebf 3171 a4be
000001f0: 30d1 2abf 4c60 9abe 8356 e0be 7992 27bf
00000200: 82af 843d d9fd 21bc 6941 fa3d 52d0 723d
00000210: 180a dbbd 460b 52be de3c 9bbc cf1d cdbd
00000220: fa88 a2bb ce82 8c3c 7ff2 a0bd 5aa6 c2bd
00000230: 4e26 1ebe e379 9fbd 3f4a f13d fbcc aa3b
00000240: 26bf 983b 24f7 9ebc c935 7abc 41a8 713d
00000250: df5d 833b ab56 8cbd 20df d33d d4bb cb3a
00000260: 487d 75bd 05ca 803c 15f2 09bd 099a b2bd
00000270: 6e19 95be aae4 83bc 46d1 bc3b aa88 0bbd
00000280: a160 da3d 51fb a93d a0b8 1fbd f723 bb3b
00000290: d801 0bbc b0a0 a4bc 42a7 803e 6cc6 9fbd
000002a0: ba1a f03d 67af fbbc 6ba9 c4bd 7613 8dbd
000002b0: ea7a 303d 9fe9 11be acdb 783d 1178 69bc
000002c0: 89c1 dcbd 3f9e 6b3d fcf7 653d f505 c6bc
000002d0: e370 91bd 0ac8 423d 489b 8abc 9a2d a9bd
000002e0: 328d 903d bb4d a53d 2f54 ac3b 8b71 743d
000002f0: 786c 5f3d f4be 1cbc ff31 98bd ae3e 68bd
00000300: 5e10 14bf 28d0 1dbf 6fae 01bf 66bf f7be
00000310: 55bf 503e 32fe c7bb 7a81 4fbf 9fa3 18bf
00000320: 97f8 f4be 2dd1 33bf cf9e 89bf 7674 dabe
00000330: ded4 01bf b518 18bf 4169 58bf 4b9b 5fbf
00000340: 5e2e 46bf 5163 1fbf beba 25bf fc4f 0dbf
00000350: 6673 02bf 1f2b 1dbf c04d 5ebf 4fc7 5abf
00000360: 916e d5be 4515 f2be 40c5 c9be c663 0fbf
00000370: 9452 88bd b500 54bf 24f7 a83d 9f8e 4abf
00000380: 2c08 cebd fa24 0dbf f32f 48bf 5329 03bf
00000390: 4924 febe 0d33 02bf c0cf d2bd 4b62 3abf
000003a0: a3fe 1dbf 97a1 f9be 569d 4abf ab32 1ebf
000003b0: ae68 e2be 83d2 713e 8a89 35bf 0b7d 3fbf
000003c0: eb69 1abf fb7f d4be 3b3c 13bf b4e6 2dbf
000003d0: 8063 03bf 194c 2fbf 1f1b 6ebf 6da3 3abf
000003e0: ec07 12bf f20e 3bbf 3ea4 29bf bc65 12bf
000003f0: 9d1f 51bf 2e3b 04bf 4269 15bf 7e84 3dbf
-0.7040826 -0.7763283 -0.15470049 -0.7169866 -0.017204871 -0.14037938 -0.7265932 -0.6034468
-0.6704375 -0.6340566 -1.0844042 -0.20499249 -0.032637294 -0.48520938 -0.72206265 -0.9303578
-0.5832913 -0.66741097 -0.6509096 -0.24204104 -0.48609442 -0.5559386 -0.82923204 -0.81965035
-0.56838626 -0.13949123 -0.39874926 -0.7595841 -0.3090352 -0.8039577 -0.04818503 -0.897049
-0.089199 -0.5006618 -0.7613277 -0.6852285 -0.52108765 -0.51397026 -0.31557685 -0.69516593
-0.66006505 -0.7239992 -0.75749016 -0.7541012 -0.47669837 0.032669123 -0.74669623 -0.86098534
-0.67621535 -0.5449084 -0.5329606 -0.7290834 -0.5988932 -0.68940115 -0.95317316 -0.9011358
-0.5284885 -0.6744125 -0.77145004 -0.42987937 -0.85169643 -0.23256844 -0.7269331 -0.72725654
-0.5585643 -0.6209417 -0.47704968 -0.58313715 0.04794126 -0.10874674 -0.6822052 -0.38577276
-0.66365206 -0.6882401 -0.9036767 -0.11997147 -0.19053759 -0.57140964 -0.60584897 -0.6884174
-0.5309821 -0.53370917 -0.60627615 -0.49379566 -0.8318496 -0.45663083 -0.7663158 -0.63853776
-0.5280193 -0.49987593 -0.5817379 -0.54579216 -0.18308389 -0.854584 0.057253234 -0.6921108
-0.29348105 -0.38757622 -0.68566805 -0.58625674 -0.5696759 -0.3531029 -0.13589269 -0.5319354
-0.52355605 -0.60900027 -0.62869674 -0.5890046 -0.43673804 0.06930944 -0.8403316 -0.6093141
-0.57069284 -0.37481162 -0.5554348 -0.65718806 -0.38288784 -0.54511636 -0.7383736 -0.78090024
-0.35246998 -0.6304701 -0.6822476 -0.32117608 -0.66725445 -0.30151594 -0.43816003 -0.65457875
0.06478788 -0.009887182 0.12219507 0.0592807 -0.106952846 -0.20512113 -0.018949922 -0.10015451
-0.0049601765 0.017152216 -0.078587525 -0.09504385 -0.154443 -0.0778692 0.117817394 0.005212424
0.0046614585 -0.019404955 -0.015271612 0.05899835 0.004008993 -0.06852468 0.10345292 0.0015543648
-0.05993393 0.01572133 -0.033678133 -0.08720786 -0.29120964 -0.016100246 0.005762252 -0.03406588
0.10662962 0.08299888 -0.03899443 0.0057110745 -0.008484326 -0.020096153 0.25127608 -0.07801518
0.11723848 -0.030723287 -0.096026264 -0.068884775 0.04308597 -0.14249276 0.06075637 -0.0142498175
-0.107791014 0.057523962 0.0561447 -0.024172762 -0.071016096 0.047554053 -0.016919747 -0.08260651
0.07058181 0.080714665 0.005259059 0.059678596 0.054546803 -0.009567011 -0.07431411 -0.0567004
-0.57837474 -0.61645746 -0.5065679 -0.48388213 0.20385487 -0.0061033005 -0.8105694 -0.59624666
-0.4784591 -0.7024105 -1.075159 -0.42666978 -0.50715435 -0.594127 -0.84535605 -0.87346333
-0.774145 -0.6226092 -0.6473807 -0.5520017 -0.50957334 -0.6139392 -0.8683739 -0.8546037
-0.41685918 -0.47281852 -0.39408302 -0.5601162 -0.066563755 -0.8281358 0.08250263 -0.7912387
-0.100601524 -0.55134547 -0.78198165 -0.5123493 -0.49637058 -0.5085915 -0.102935314 -0.72806233
-0.6171667 -0.48756096 -0.79146326 -0.61796063 -0.4422049 0.2361546 -0.7091299 -0.74800175
-0.6031787 -0.4150389 -0.5751378 -0.6793015 -0.513237 -0.6847549 -0.93010134 -0.7290562
-0.5704334 -0.7306968 -0.6626624 -0.57186484 -0.81688863 -0.516528 -0.58363736 -0.7403029
